Lunar Lander/checkpoint.pth (torch, 22566 bytes, 6 tensors)

fc1.weight f4 [64, 8]
00000000: a45c 23be df27 1fbd 2185 a2be c244 d1be
00000010: 2c30 9bbd 1b82 593e ccec cb3c 32c7 0a3f
00000020: c41b c0bc 5cc8 4b3e e8f0 76bf 73b1 0cbe
00000030: 8bc3 0cbf 4720 0fbf 7f2f aebd 1fa2 9c3d
00000040: 74e4 833e 709b e63e dda4 eebe 50b5 c2be
00000050: fb63 b8bc 5ba5 053f 323e 3b3e 3f29 eb3e
00000060: a9e7 4dbe 24b0 5c3c 19b7 0f3f 7f01 71be
00000070: 7bb6 9fbe 93f6 173e 34d9 68be ebdb 28bb
00000080: 6f09 95be 77cb debf 3633 8bbe 6eb7 31be
00000090: 5cb5 babe a8fa 173e e450 1d3e 6c25 b53d
000000a0: 13f6 5cbd 0339 1fbe 4757 6f3e 0f59 11bf
000000b0: 3cb9 68be 5c25 82be 6072 643d 63d1 aa3e
000000c0: 36c9 a9be 2660 453e 1ccc 113e 7d21 183f
000000d0: 5c8b 98bc b4f5 67be c422 523e 14c3 7cbf
000000e0: 9ecd 303f db5f 1fc0 630c 52be 1a7d 64be
000000f0: 3307 27bd 4074 1e3d f282 153e 9665 c53e
00000100: 97a0 1bbe 0b3b b63e 39ce 15bf 39b6 0f3f
00000110: 4fb3 0a3f ae7e 103e 6a4b 96b8 937f d1bd
00000120: de0c 903e d011 a33d 522e 513f b435 ec3d
00000130: f132 423e a291 06bf 0ba1 30be 1fdc 95bf
00000140: b71b 87be 9e77 eabd 9ad6 2e3f fd94 a6be
00000150: 9173 e73d ede6 2a3e e699 94be 41d9 24be
00000160: dbdc b6be 0ca8 753e 9e2a 093f ede2 763e
00000170: 2a15 f83e 0639 2c3f 4a4e 9abe 1de8 ad3d
00000180: 6f06 3cbe 3578 223f b3cd a5be ddc6 02bf
00000190: 4d5d d0bc 012a 363f ca79 86be 3faf 0dbe
000001a0: ef5c e6be b924 823d 5e76 39be 49c8 1abf
000001b0: 5282 fe3b 82b3 c7bd ee21 193e a068 fc3e
000001c0: a786 bbbe 9356 8f3e 0edd 483d aa96 d2be
000001d0: 3405 a1bd 1b79 253e c28f 88be c95b a5bc
000001e0: 98c3 e9bd 58d9 5e3d ec8d 1f3e 7a2f 843d
000001f0: 08c4 38bf 1ac6 32bf c4ca afbe e012 10bf
00000200: 84bc 1bbf 10a8 54bf 1f80 07be 71c1 e93d
00000210: 7df9 c1be c423 bbbd ac3b c33e d32a b3be
00000220: 7b6e 353d 7dc0 80bc 71a5 e5bd 687c 533e
00000230: 252e 5b3f 3b9b 0b3f 1e55 833e 7be7 233e
00000240: 1251 813d 4c88 3e3e dc72 453f 39ef 1c3e
00000250: 84ba a6be 3c1a 1abf c211 02bf 4732 a0be
00000260: 7bf7 71be fbaa d0bd 64ad f33d 9a3b cfbe
00000270: 78b2 0b3e 117c 353d d4b0 c6be 8794 8dbe
00000280: 3d2e 553e acaa 04c0 8580 bbbd bca8 8dbe
00000290: 23ff 78be ae4b 093e 6e3b b1bd b64e b33e
000002a0: b059 33bf ad07 ab3d da1c 073f bd8f cebe
000002b0: 5785 0b3e 1a2d 053e 0555 1cbf fe47 a33e
000002c0: e539 d7bd 99c4 103e 124e 953e 0f41 ffbe
000002d0: 3b36 3a3e baef c6be 02c3 de3d 8797 ec3d
000002e0: f423 ce3e 1ff1 a5be e5d2 14be c3eb c03c
000002f0: c2f0 74be 499b aa3e 9775 4e3e 951f c73e
00000300: 7490 983e 14e1 b33e 22d9 33bf 26bb 9ebe
00000310: baf5 dabe a4df 00bf 7b98 aebd b5be 34be
00000320: 82d0 4e3e c265 0f3e a35c 8ebe c0a3 a2be
00000330: 6e06 ddbd 7cc7 913e dc5b a3bb a367 203f
00000340: 3392 c63e d021 1abc 1010 473e f620 efbe
00000350: 663d 443f 2ed7 97bc 4b27 adbd 94b2 27be
00000360: c968 c9be 0d68 04be 6e51 073f 01f0 02bf
00000370: dc59 6bbe 4e6f a63e d62d b83d 9ef8 633d
00000380: d8dd 17be 6623 f7bc 2b8a acbe c206 c6be
00000390: 48a1 9dbe 6231 2cbf 0390 813e c45d 153f
000003a0: c385 63bd 098e 9b3e 9047 993e b6af 0fbe
000003b0: 288d 833f 6082 16be fbb2 babe 0295 5d3d
000003c0: a540 b6bd 6bac a93d 5b45 79be 21fe 05bf
000003d0: 2d14 813e cba8 61bf e20c f6bd 9882 ddbe
000003e0: d327 95be c613 e03d 52c3 3cbf 78bd 6d3e
000003f0: 13f0 ef3e c9c2 8bbd 7a3e 0bbf c733 3abe
-0.15953308 -0.038856383 -0.31742194 -0.4087277 -0.075775474 0.21241038 0.024893187 0.542102
-0.02345074 0.1990065 -0.96461344 -0.13739567 -0.54985875 -0.55908626 -0.08505153 0.0764811
0.25760233 0.45040464 -0.46610156 -0.38028955 -0.022508612 0.5220544 0.18285444 0.45929906
-0.20107903 0.01346973 0.5613876 -0.23535727 -0.3119391 0.14840154 -0.22739106 -0.0025765847
-0.2910876 -1.7405843 -0.27187508 -0.17355129 -0.3646649 0.14841712 0.15362889 0.08845028
-0.053945612 -0.15549092 0.23373137 -0.5677652 -0.22726911 -0.25419128 0.05577314 0.33362874
-0.33161324 0.19274959 0.14238018 0.594261 -0.01862114 -0.22652322 0.20521075 -0.98735166
0.69063747 -2.4902256 -0.20512538 -0.22313347 -0.04077835 0.038685083 0.14600733 0.38554066
-0.15197979 0.3559192 -0.58517796 0.56137425 0.54179853 0.14110824 -7.166604e-05 -0.10229411
0.28134817 0.07962382 0.81711304 0.115336806 0.18964745 -0.5256597 -0.17248933 -1.1707801
-0.26388332 -0.114485964 0.68296206 -0.32535544 0.113013394 0.16689654 -0.29023665 -0.16098501
-0.35715374 0.23989886 0.53580654 0.24110003 0.48453647 0.6727451 -0.30137855 0.08491538
-0.18361829 0.6346467 -0.323835 -0.5108469 -0.025435114 0.7115784 -0.26264793 -0.13836382
-0.44992778 0.063546605 -0.1811156 -0.6046186 0.0077670002 -0.09751035 0.1495435 0.49298573
-0.3662617 0.27995738 0.04903894 -0.41130573 -0.078623205 0.1615948 -0.26672179 -0.020185368
-0.1141426 0.054406494 0.15581483 0.06454368 -0.7217412 -0.6983353 -0.34334385 -0.562788
-0.60834527 -0.83068943 -0.13232468 0.11413849 -0.37885657 -0.09137681 0.38131464 -0.3499361
0.044294816 -0.015716786 -0.11213196 0.20652926 0.85617286 0.5453374 0.25650877 0.16006272
0.06314291 0.1860668 0.77128386 0.15325631 -0.32564175 -0.6019628 -0.50808346 -0.3128836
-0.23629563 -0.10188862 0.11898306 -0.4047516 0.13642299 0.044307772 -0.38806784 -0.2765238
0.2081842 -2.072917 -0.091553725 -0.27667797 -0.24316077 0.13407776 -0.086539134 0.3502099
-0.7005873 0.083510734 0.527784 -0.4034404 0.13625084 0.13005486 -0.6106723 0.31890863
-0.105090894 0.14137496 0.29161125 -0.49854323 0.1818475 -0.38854772 0.108770385 0.11552339
0.40261805 -0.32410523 -0.14533575 0.02354992 -0.23919967 0.33321598 0.20162044 0.38891283
0.2979771 0.35132658 -0.70253193 -0.31002158 -0.427656 -0.5034125 -0.08525177 -0.17650874
0.20196727 0.14003661 -0.2780505 -0.31765556 -0.10792242 0.28472507 -0.0049853157 0.6265814
0.38783416 -0.009407476 0.19439721 -0.46704835 0.76656187 -0.018535223 -0.0845476 -0.16376716
-0.39337757 -0.12930317 0.52858627 -0.51147467 -0.22983497 0.32506794 0.089931175 0.05565702
-0.1483072 -0.030168246 -0.33699164 -0.3867703 -0.3078711 -0.6726285 0.25305185 0.583462
-0.055547487 0.30381802 0.2993741 -0.14031872 1.0277452 -0.14698172 -0.36464676 0.054097183
-0.08899049 0.08284839 -0.24342863 -0.52340895 0.25210705 -0.8814818 -0.12014176 -0.43263698
-0.29131946 0.109412715 -0.73735535 0.23216808 0.4686285 -0.06824262 -0.54392207 -0.18183814

fc1.bias f4 [64]
00000000: 99f5 dabe 6803 09be b4eb 9c3e bd39 323e
00000010: 9ab8 15bf a11d 53be 9ef9 163f 4820 2abd
00000020: 2109 ba3e d69d debe 4e79 823e dc12 26bd
00000030: b336 923d 8811 8ebe 2726 ed3e 73f9 68bc
00000040: 66ac 0b3d bb5c e33d 73ce 073f 8877 083f
00000050: eb99 d5be 60b7 e0be 9064 1cbf 5169 b2be
00000060: c25e 01bd 6cea dcbe b95c 1d3e 74f0 d23d
00000070: 5641 063e fba3 273e e385 1bbe fdbc 0bbe
00000080: 5b71 5c3e b036 a53d 5907 2ebf 1ad0 13be
00000090: 3ee7 dd3e 972e 053f 8c84 85be 44dc 0abd
000000a0: 270d a23d 112f 1cbe 8564 8dbe cfc2 a43e
000000b0: ea8b 0abe f81a ce3e 565a a03e d196 1cbc
000000c0: a222 de3d 03eb 02be 9e80 8b3e 6fc5 f53e
000000d0: e829 533d 3e8a 093f f3e0 1e3e 87b5 393e
000000e0: 4f41 603e fa72 d83e 4447 f63e d7b5 773e
000000f0: 4801 533e d8ec a8be f87c 2b3e 80f5 b83e
-0.427655 -0.13380206 0.30648577 0.17404838 -0.58484805 -0.20616771 0.58974636 -0.041534692
0.3633509 -0.43479794 0.25483173 -0.04054533 0.07139339 -0.2774775 0.4631817 -0.01421963
0.03409996 0.11101671 0.5304939 0.5330739 -0.41718993 -0.43889904 -0.61090946 -0.34845975
-0.03158451 -0.431476 0.15367402 0.10299769 0.13110861 0.16371147 -0.15187792 -0.13646312
0.21527617 0.080670714 -0.6797996 -0.14434853 0.43340486 0.52024215 -0.26077688 -0.033901468
0.07912665 -0.1525233 -0.27615753 0.32179877 -0.13529935 0.4025495 0.3131892 -0.009557442
0.108464494 -0.12784962 0.27246565 0.48002192 0.051553637 0.53726566 0.15515499 0.18135653
0.21899913 0.4227522 0.48101246 0.2419046 0.20605958 -0.32993197 0.1674689 0.36124802

fc2.weight f4 [64, 64]
00000000: c089 733e 52de 64bf 9994 143d 729e 453e
00000010: 840e 0ebf fb56 173d 93e3 633e d3ff ebbe
00000020: be49 dabd 2575 713e ad3a aa3d 854f 9dbe
00000030: 0268 193e da96 693e 7f82 5d3c 3d28 f43e
00000040: e705 2b3e 8bb1 823e 1f66 00be 2ac6 9d3d
00000050: 690f 51bf 3937 1a3e 121d 203f e58b 52bd
00000060: 2069 00bf f429 3b3e 987c aabd 4982 9a3e
00000070: 0e54 d93d 3b85 3abd 1694 ba3d 5ef2 0a3e
00000080: a92d 85bc 696f 733e 8850 8e3e e32a 08be
00000090: 8f34 c23e 2fe0 49bc 1ffc a9be ee61 5fbe
000000a0: bcaf b1bd 81e0 e03d c1a0 f23d e348 203e
000000b0: d669 873e 1efc 383e abd0 40bf a086 abbe
000000c0: 86d6 923e 100c fc3d a269 c93e e373 b7bd
000000d0: 65b1 433e 1701 c83c 015a e63c 2bc6 4b3e
000000e0: 4a6e a6bd bd07 59be 5309 433e a6d2 123d
000000f0: ac3a 08bd 3f39 1bbe 2a63 8b3d d2a3 5c3e
00000100: 3f78 283e 06ad bbbe 1b8d b03d 07b8 223c
00000110: 3d38 abbe b166 813d 96f2 b13e ddac 72be
00000120: d4b6 ecbd 6a2e b53e eef2 ae3d 0424 a5be
00000130: d06e 073e 3dce 7fbc e99d 73bd 5adc 393e
00000140: 177e aa3e 4cfe 683e 23c2 d2be b603 883d
00000150: a56c 9bbe d1b8 333d ece1 9d3e ce73 d6bd
00000160: e97d cabd 3d77 b73e 7e15 a7bc 75db 923e
00000170: ad7b 253e 406c e73d 3382 abbe 82b8 903e
00000180: 383a 593d 6c58 193f f7a9 873e 3fc7 053e
00000190: f2a3 7c3e e38a 563d 062f edbe febe b2be
000001a0: 872f 323d 0ed6 823d 041b eebe 16b6 0dbc
000001b0: f4c6 593f 2462 433e b6c0 bebe b7e7 b2be
000001c0: a074 023f 2acd a03e eeda bb3e ef69 04be
000001d0: a8e5 8a3e bef7 4f3e 4805 93be be26 b6be
000001e0: 56e0 90bd 4575 78be 590a 333e dcce af3d
000001f0: 6e8d 66be a0e0 2fbc 9e73 fe3d 0481 ac3e
00000200: ae5d 563e 34a7 1abd 66ce 133e b688 293e
00000210: f6a9 c4be ef3f 913d cc59 13bf 8296 74be
00000220: dcf4 8ebe 051a 15bf 7c4c ab3d 2ec4 f8bd
00000230: 748b 7c3e f92d 1c3e e574 ccbc 5b1f c53d
00000240: b9d8 a53e 7b39 f5bd 03b8 c8be 77af 41be
00000250: 5937 a0be 975e c73e ca3d 863c ab70 91be
00000260: 0041 613e 87be 8e3e 8c67 94bd 2d61 973e
00000270: 38c2 403e 8fed 11be 194f 13bf c324 503e
00000280: 04ad 4a3e 409e ae3e 610c ba3d 697c 11be
00000290: 0e5c 46be 81c0 1b3c 721f a1be 011f 18bf
000002a0: 0df9 63bd 6d98 273e 1e6e f6be 89d7 e2be
000002b0: 79f7 72be a49a d03d 8a5e bbbe bc90 b6be
000002c0: 6453 ce3e 81d8 8d3e a58e 483e f247 c73d
000002d0: 8eaa a4bd adda 703e 1c5a 4abf 4f25 d3be
000002e0: 6b8e 023d 6130 81bd 6e2b 443d 5be1 0c3e
000002f0: ff4e 15be 3444 94bd 0448 1abe a90f 003e
00000300: c91d 043d 623a 7d3d 83bc 0ebe 363c 24bd
00000310: 59f1 d33e fae4 cd3e 6309 c2be 527f 4b3e
00000320: f3f0 0ebf 2017 493e 5cea 883e 867d 1abf
00000330: 3474 24bf 7dd1 993e 60cf df3d 132a 913e
00000340: 9051 22be 3335 bf3d 3f30 24bd efd0 c63d
00000350: 5aad 033f b722 df3e 6804 d73e e0ec ea3e
00000360: 3852 213e 110f 903d 6755 eabd ca53 49bd
00000370: 0a3a ce3d 00cc c9be 45d2 f13e e8c0 18be
00000380: 17b2 1a3e 8b19 05bf 4d04 353e 19c4 81bd
00000390: 1db7 28bf cfd4 ad3a ad7d 123f 808b e23d
000003a0: 7b07 5e3e f74d 6a3e f6e2 1cbe 1be5 533d
000003b0: da12 54bd 1f1a 4dbe 82f9 8b3d 3609 c53d
000003c0: 6467 c4be 0ed2 953d 442c 86bc 8144 8fbe
000003d0: e54d e43d 1e53 9dbd b32d c13e a196 97be
000003e0: f27e b8bc cc31 783d b15c 263e 372b 213d
000003f0: 998a c83d 3557 2d3f ab89 2e3d b34f d5bc
0.23783016 -0.89401734 0.036274526 0.19298723 -0.554909 0.036948185 0.22254781 -0.46093616
-0.106585965 0.23579843 0.08311973 -0.3072473 0.14981082 0.22811452 0.013519882 0.4768695
0.1670147 0.2552608 -0.12538956 0.077038124 -0.8166414 0.15060128 0.6254436 -0.051402945
-0.5016041 0.18277723 -0.083245456 0.30177525 0.10611735 -0.045537215 0.091102764 0.13569018
-0.016257124 0.23772968 0.27795815 -0.1329761 0.37930724 -0.012321516 -0.33200166 -0.21814701
-0.08676097 0.10980321 0.118470676 0.15652804 0.26447934 0.18064925 -0.753184 -0.33501148
0.28679293 0.12306988 0.39338404 -0.089576505 0.1911064 0.024414582 0.02811909 0.19899814
-0.08126505 -0.21194358 0.19046526 0.03584542 -0.03325908 -0.15158556 0.068060234 0.21546867
0.1645212 -0.36655444 0.08620664 0.009931571 -0.33441344 0.06318415 0.3475539 -0.23698755
-0.11558309 0.35386974 0.08542429 -0.3225404 0.13225865 -0.015613136 -0.059476767 0.18150464
0.33299324 0.22753257 -0.4116374 0.06641333 -0.30356327 0.043877427 0.30836427 -0.10471307
-0.09887297 0.3583316 -0.02039599 0.28683057 0.1616046 0.11299944 -0.33497772 0.28265768
0.053034037 0.59900546 0.2649686 0.13064288 0.24671915 0.052378546 -0.4632494 -0.3491134
0.043502357 0.06388484 -0.46504986 -0.00864937 0.85069203 0.19080406 -0.37256402 -0.3494241
0.50959206 0.31406528 0.36690468 -0.12931035 0.2712834 0.2030935 -0.28714967 -0.35576433
-0.07074039 -0.24263485 0.17484416 0.08584377 -0.22514889 -0.010734707 0.12424396 0.3369218
0.20934173 -0.037757114 0.14434204 0.16556057 -0.3841092 0.070922725 -0.57558894 -0.23885539
-0.27921188 -0.5824283 0.083641976 -0.12146793 0.24662572 0.15251912 -0.024958083 0.09625121
0.3239191 -0.11973854 -0.3920289 -0.18914591 -0.31292227 0.38939354 0.016386885 -0.2840627
0.21997452 0.27879736 -0.072463125 0.29566327 0.18824089 -0.14250778 -0.5754257 0.20326523
0.19792563 0.3410511 0.09084392 -0.14207615 -0.19371054 0.009506346 -0.31469303 -0.5942231
-0.055657435 0.1636674 -0.48130888 -0.44305065 -0.23727216 0.10185745 -0.36595565 -0.356573
0.40297997 0.27704242 0.19585665 0.09730519 -0.08040343 0.23520918 -0.79043746 -0.41239402
0.0318741 -0.06308056 0.04789298 0.13757841 -0.14580916 -0.07239571 -0.15066534 0.12505974
0.032254968 0.061823256 -0.13939099 -0.040096484 0.4139507 0.40213758 -0.37897786 0.19872788
-0.5583641 0.19637728 0.26741302 -0.60347784 -0.6423981 0.3004264 0.109282255 0.28352413
-0.15851426 0.09336319 -0.040085074 0.0970782 0.5143639 0.43581173 0.4199555 0.45883846
0.1575402 0.07034124 -0.114420705 -0.049152173 0.10069664 -0.39413452 0.47230735 -0.14917338
0.15106998 -0.519921 0.17677422 -0.06336231 -0.6590441 0.0013262274 0.57223016 0.11061764
0.21682541 0.22881304 -0.15320954 0.051732164 -0.05177579 -0.20029496 0.06834699 0.096208975
-0.3836013 0.073154554 -0.01637853 -0.27981952 0.1114767 -0.07681869 0.37730178 -0.29607108
-0.02252147 0.060594365 0.16246296 0.039347854 0.097920604 0.6771119 0.04261176 -0.02603898

fc2.bias f4 [64]
00000000: 4539 cebc 6218 febd ac95 72be 7928 6a3c
00000010: 29f6 883e 24df ad3e cf0f ffbc 3e9d 633e
00000020: e964 be3c 6453 acbd 4bb4 403e f480 873e
00000030: 97c3 0f3e 18ab 933d 2a55 24bd a40b a43e
00000040: 977a b2bc 1ba5 8f3d 0778 94bd 0b01 cb3d
00000050: 65cc 0b3e 8f10 953d 5751 32bd 4cf0 03be
00000060: 2321 1cbd 68be 88bd f07d 923c 8b74 dfbd
00000070: c021 0d3e eead 903d 4690 ae3d ade3 be3e
00000080: 5e8d 333e b8be 3f3e 06ce 553e 5558 f9bd
00000090: 8fee 3e3e f273 7b3b fe28 f73d 3cd9 e1bd
000000a0: c3e0 f63d f4a2 a7bd 2aac 2fbd 37f2 be3d
000000b0: ee48 cebd e87b c83d 9aaa bbbd 834c 36be
000000c0: bd59 c23d 3828 8bbe 393c 213e ee0a b8bd
000000d0: 710e 163e b7aa ce3c 87e0 59bd c8db 64be
000000e0: d5e4 813e 627a 933d 36c0 3c3e 953f 713e
000000f0: e762 d1bb 11ea 14be 9df8 473e 8526 e13d
-0.025173793 -0.124069944 -0.23689908 0.014291876 0.26750305 0.33959305 -0.031135468 0.22227952
0.023241477 -0.08414343 0.18818776 0.2646557 0.14039455 0.07210368 -0.04012028 0.3204013
-0.021786971 0.07013913 -0.07249456 0.09912308 0.13652189 0.07278549 -0.043534603 -0.12884635
-0.03811754 -0.06676942 0.017882317 -0.10910901 0.13782406 0.070644245 0.08523612 0.37283078
0.17534396 0.18725097 0.20879373 -0.12175051 0.1864569 0.003836867 0.120683655 -0.11027762
0.12054589 -0.08185378 -0.042888798 0.093235426 -0.10072504 0.09789258 -0.09163399 -0.17802624
0.094897725 -0.27179122 0.1574563 -0.0898646 0.14653946 0.025227888 -0.05319264 -0.22349465
0.25369897 0.07201077 0.18432698 0.23559411 -0.006389964 -0.14542414 0.19528432 0.10993675

action.weight f4 [4, 64]
00000000: 7211 343e b2e2 783e 4ecf 31bf 6b28 123f
00000010: a2db 363d b29c 80bf 64f5 ab3e c102 033f
00000020: 062f b3bd b40d f43e 35a1 c0bd 8180 f3be
00000030: 9128 673e 22ad 2c3e 11a0 d2bd 7769 48bd
00000040: fa1b c73e 7ca3 663e 6ccb 38bd 6f7d 033f
00000050: ae5a 553d 7180 c43e c872 ab3e 9b73 46bc
00000060: cca1 bb3e 1b43 1dbf 3390 b63e 94f8 5abf
00000070: 1967 1f3e 0cab 15bf cf8c 443d 0720 d2be
00000080: dfa7 41bc fe81 b63e 03b1 15bf 5325 e9bd
00000090: 506c 283d 3a2a 6f3e 2f20 e5be d9d5 a63f
000000a0: 6af6 1e3f 2b74 013f 5a8a 143f d12e 47bf
000000b0: fa7b 823e ccf3 05bd 1ef3 853d 9fca 86be
000000c0: 1932 42bf d5f2 3fbe ed99 3e3f 76af 953e
000000d0: ced4 033e e68c 403e 4f20 563d bc2c b9bd
000000e0: 4504 7dbe b45f 4bbf ee7c b9bf 6b2d aabd
000000f0: 652d acbe e8b9 903d b591 e2bd 0e01 4fbe
00000100: 60b1 7e3e 9f81 36bc 9821 b53e fa29 99bb
00000110: ebea 0cbe c007 b73e aebb 5e3e 055b 02bf
00000120: 7f5c e43d 5215 cf3e bb33 3ebe 37ca 65bf
00000130: da5e 493e 162f 453f b45f 283f b669 74be
00000140: fb90 593e 5705 c03d f941 c93e 3391 09be
00000150: 6772 aa3c 0734 cd3e 3378 d43e a062 7ebd
00000160: 6778 a6bd e7fc 793d 3150 113f 4cfb 193f
00000170: 613d 583e b247 8d3d f8cc 21bf d92a 733f
00000180: 85aa 033f 99dd e6bd d537 883e db5c e13d
00000190: 25d7 60be f7a1 e9bd 59d8 f63e 491f 213f
000001a0: 47b7 aa3d bac6 8a3d ed95 4e3e 22be 0b3f
000001b0: 69c2 69be 601a 2f3c bdd6 d23d 4f43 a93f
000001c0: 91c5 d03e f258 663f 68a5 59bd 0a89 783e
000001d0: a035 87be 4dc3 f93e 1462 22bc a326 a7bf
000001e0: e913 95be bb95 a83f f491 e6bd 9efc 39be
000001f0: 59b0 9fbe 82b9 843f c4f7 d73e a5e8 08be
00000200: 36fe 48bf e285 07bf ec3e b4be b77d e43d
00000210: 99a5 b93e 4d9b ba3e c40c edbe ef4a 5d3f
00000220: 7a08 af3d fbae 863e 0834 a93e f676 f93e
00000230: d289 783f 2c32 31bf 0bff 8ebf 7d96 683e
00000240: 8e29 32bf a001 99bf 4326 17bf b063 8ebf
00000250: 628d a83e 7c10 9e3d 2c6b 3dbf b7f4 c83a
00000260: 7431 1fbf 66c9 e83e ca9d 4abf e12b 84ba
00000270: f826 8bbf 33d1 033f c751 73be a1d8 0c3f
00000280: 6a44 503f 694d 40bf 16ce 363f 6e32 4fbd
00000290: 22e9 2e3e 0d15 25bf e580 2c3f 5589 c9bf
000002a0: ed8d 7ebf eadf 72bf 3092 bfbf 46df 593f
000002b0: db41 dabd c0fa 4dbb 61e8 7cbd 11c7 02bf
000002c0: ff20 a53e 4db1 00bf 8781 9ebf 4726 4bbf
000002d0: 94a9 fdbe e000 5cbf 2d38 a63c 18d0 eb3c
000002e0: 76eb a03e 4c28 1ec0 ed8a 503f 5e60 b73e
000002f0: a720 083d eb89 dfbd 9c22 7cbf f232 04bf
00000300: fab8 6b3e 0587 a93e 7d4e f63e 69aa 1abf
00000310: a552 183d 02c4 d6bc f2c9 74bc 1344 08bf
00000320: f6e8 073c 4177 33bf c9b7 603d 09a6 ad3e
00000330: cf81 2cbf bd88 c9be f251 a13e a7b4 223f
00000340: 97fb bb3d 9c6c 423f d8ce 9c3e bf1c 823e
00000350: 73b3 93bd 36bf 28bf b7f5 823d e560 493c
00000360: 616d aa3d 7777 123f 89aa b8be e92c 0cbe
00000370: f28f 513e 34e8 07be be39 333f 93d9 01c0
00000380: 3a49 4bbf dd84 a33e 9a8c 8fbf 7836 7abd
00000390: 74fb 4a3e ae62 c53e 3592 72bf 0681 0c3f
000003a0: ed8d 35be 591e 323d edd9 603e 0754 57bf
000003b0: e053 bf3e 9064 f3bd 7f2b 673d a666 a4be
000003c0: 17c0 89be a4f5 1d3e cdce 17be 478c fd3d
000003d0: 8ea4 0a3f 9874 7f3e aa8e c3bd 23c4 d03f
000003e0: 5873 9d3e 1598 24be b5ec 893e 6d1e d5bc
000003f0: e8b8 df3e 4338 76bf 2fff 493f dabe ce3e
0.1758478 0.24305227 -0.69456947 0.5709292 0.044643052 -1.004782 0.33585656 0.5117608
-0.087492034 0.47666705 -0.09405748 -0.47558978 0.22574069 0.1686292 -0.102844365 -0.048928704
0.38888532 0.22523302 -0.045115873 0.5136327 0.052088432 0.38379243 0.3348601 -0.012112523
0.3664688 -0.6143052 0.3565689 -0.8553555 0.15566672 -0.5846412 0.047985848 -0.4104006
-0.011819809 0.3564605 -0.58473223 -0.11384072 0.04111892 0.23355952 -0.44751117 1.3034011
0.6209475 0.50567883 0.5802361 -0.7780581 0.25485212 -0.032703206 0.065405115 -0.26326463
-0.7585769 -0.18744977 0.7445362 0.2923543 0.12874147 0.18803748 0.052276906 -0.090417355
-0.2470866 -0.79442906 -1.449125 -0.08309444 -0.33628383 0.07066709 -0.11062948 -0.20215246
0.2487235 -0.0111393025 0.35377192 -0.0046741934 -0.13761489 0.357481 0.21751282 -0.50920135
0.11150455 0.40445954 -0.18574421 -0.8976168 0.19665089 0.7702497 0.6577103 -0.2386845
0.21246712 0.093760185 0.39308146 -0.13434295 0.020806504 0.40078756 0.41497955 -0.062105775
-0.08128434 0.061032202 0.5676299 0.60149074 0.21117164 0.068984404 -0.6320338 0.94987255
0.5143207 -0.11272735 0.26605096 0.11004039 -0.21957071 -0.114078455 0.48211935 0.6293836
0.08335739 0.06776185 0.2017438 0.54586995 -0.22828068 0.010687441 0.10294864 1.3223666
0.4077573 0.8997947 -0.05313626 0.24271026 -0.264081 0.48781815 -0.009911079 -1.3058666
-0.29116753 1.3170694 -0.11258307 -0.18162772 -0.3118923 1.0369112 0.42181218 -0.13369997
-0.78512895 -0.52938664 -0.35204256 0.11156791 0.36259153 0.3644661 -0.46298802 0.86442465
0.08546539 0.26305375 0.3304751 0.48723572 0.970853 -0.6921718 -1.1171583 0.22713657
-0.6959466 -1.1953621 -0.5904276 -1.1124172 0.32920367 0.07717988 -0.73991656 0.001533172
-0.62184834 0.45466155 -0.79147017 -0.0010083878 -1.0871267 0.5149109 -0.23761664 0.5501805
0.8135439 -0.7511812 0.7140821 -0.050585203 0.1708112 -0.64485246 0.6738418 -1.5745035
-0.9943531 -0.94872916 -1.4966488 0.85106313 -0.10657092 -0.0031429976 -0.06174505 -0.51085
0.32251737 -0.5027054 -1.2383279 -0.7935528 -0.4954344 -0.85938835 0.020290459 0.02878575
0.31429642 -2.4712095 0.81461984 0.3581571 0.033234265 -0.10914978 -0.9849031 -0.51640236
0.23019782 0.33110824 0.48106757 -0.60416275 0.03718819 -0.02621651 -0.014940726 -0.53228873
0.008295288 -0.7010384 0.05486277 0.33915737 -0.6738557 -0.39362136 0.31507832 0.63556904
0.09178846 0.75946975 0.3062656 0.25412557 -0.072119616 -0.65916765 0.06394523 0.012291168
0.083216436 0.5721354 -0.36067608 -0.13689007 0.20465067 -0.13272172 0.7000998 -2.0289047
-0.7940861 0.31937304 -1.1214783 -0.0610871 0.19822484 0.3855185 -0.94754344 0.54884374
-0.17729922 0.043485973 0.21958132 -0.8411259 0.3736868 -0.11884415 0.056437965 -0.32109565
-0.26904365 0.15425736 -0.14824982 0.123802714 0.5415734 0.2494682 -0.095486954 1.6309856
0.30752063 -0.1607364 0.26938406 -0.026015485 0.4369576 -0.961796 0.78905004 0.40379983

action.bias f4 [4]
00000000: 0231 973d ac76 25be 8aa3 6c3e 9ec6 2c3d
0.073823944 -0.16158551 0.2310926 0.042181604
